# Ultralytics YOLO 🚀, AGPL-3.0 license
# YOLOv8 object detection model with P3-P5 outputs. For Usage examples see https://docs.ultralytics.com/tasks/detect

# Parameters
nc: 80  # number of classes
scales: # model compound scaling constants, i.e. 'model=yolov8n.yaml' will call yolov8.yaml with scale 'n'
  # [depth, width, max_channels]  
  n: [ 0.33, 0.25, 1024 ]  # YOLOv8n summary: 225 layers,  3157200 parameters,  3157184 gradients,   8.9 GFLOPs
  s: [ 0.33, 0.50, 1024 ]  # YOLOv8s summary: 225 layers, 11166560 parameters, 11166544 gradients,  28.8 GFLOPs
  m: [ 0.67, 0.75, 768 ]   # YOLOv8m summary: 295 layers, 25902640 parameters, 25902624 gradients,  79.3 GFLOPs
  l: [ 1.00, 1.00, 512 ]   # YOLOv8l summary: 365 layers, 43691520 parameters, 43691504 gradients, 165.7 GFLOPs
  x: [ 1.00, 1.25, 512 ]   # YOLOv8x summary: 365 layers, 68229648 parameters, 68229632 gradients, 258.5 GFLOPs

# YOLOv8.0n backbone
backbone:
  # [from, repeats, module, args]
  - [ -1, 1, resnext50_32x4d, [ True ] ]             # 0
  - [ 0, 1, cho_output, [ 2 ] ]            # 1 layer 2
  - [ 0, 1, cho_output, [ 3 ] ]           # 2 layer 3
  - [ 0, 1, cho_output, [ 4 ] ]          # 3 layer 4
  - [ [2,1], 1, DecoderBlock, [ 1024, 512, 512] ]    # 4 x_1_1
  - [ [ -1, 1 ], 1, Concat, [ 1 ] ]                  # 5 skip cat
  - [ [3,2], 1, DecoderBlock, [ 2048, 1024, 1024] ]  # 6 x_0_0 p4
  - [ [ -1, -2 ], 1, DecoderBlock, [ 1024, 1024, 512] ]  # 7 x_0_2  p3
  - [ 3, 1, SPPF, [ 2048, 5 ] ]                         # 8 p5

# YOLOv8.0n head
head:
  - [ -1, 1, nn.Upsample, [ None, 2, 'nearest' ] ]      # 9
  - [ [ -1, 6 ], 1, Concat, [ 1 ] ]                     # 10 cat backbone P4
  - [ -1, 3, C2f, [ 512 ] ]                             # 11

  - [ -1, 1, nn.Upsample, [ None, 2, 'nearest' ] ]      # 12
  - [ [ -1, 7 ], 1, Concat, [ 1 ] ]                     # 13 cat backbone P3

  - [ -1, 3, C2f, [ 256 ] ]                             # 14 (P3/8-small)

  - [ -1, 1, Conv, [ 256, 3, 2 ] ]                     # 15
  - [ [ -1, 11 ], 1, Concat, [ 1 ] ]                   # 16 cat head P4

  - [ -1, 3, C2f, [ 512 ] ]                            # 17 (P4/16-medium)

  - [ -1, 1, Conv, [ 512, 3, 2 ] ]                     # 18
  - [ [ -1, 8 ], 1, Concat, [ 1 ] ]                   # cat head P5 19

  - [ -1, 3, C2f, [ 1024 ] ]                          # 20 (P5/32-large)

  - [ [ 14, 17, 20 ], 1, Detect, [ nc ] ]    # 21 Segment(P3, P4, P5)
